test/TES-7/checkpoints/epoch=69.ckpt (torch_old, 142110 bytes, 404 tensors)

exp_avg f4 [2]
000000 5e 36 89 3d 6d 70 28 bf
       0.06699823 -0.6579655

exp_avg_sq f4 [2]
000000 73 ea e4 3d c7 36 23 3e
       0.1117753 0.15938865

exp_avg f4 [2]
000000 a4 49 99 3c de b6 51 bc
       0.018711872 -0.012799947

exp_avg_sq f4 [2]
000000 fd 6b 9e 3c 37 ba c0 3c
       0.019338602 0.023526294

exp_avg f4 [2]
000000 9a 93 ba 3e f6 78 bb 3e
       0.36440736 0.36615723

exp_avg_sq f4 [2]
000000 56 00 7b 3c c3 d4 8c 3c
       0.015319904 0.017191296

exp_avg f4 [2]
000000 65 36 b0 41 1e a8 c2 41
       22.02656 24.332088

exp_avg_sq f4 [2]
000000 73 83 f4 41 95 6f 17 42
       30.564184 37.858967

exp_avg f4 [2]
000000 bc 8c 0e be 91 c6 2e be
       -0.13920873 -0.17067935

exp_avg_sq f4 [2]
000000 2e 78 25 3d f7 83 29 3c
       0.040397815 0.010346404

exp_avg f4 [2]
000000 24 16 13 be b1 74 04 3e
       -0.14363915 0.12935139

exp_avg_sq f4 [2]
000000 33 4d 8b 3b 2c bf 09 3b
       0.004251146 0.0021018488

exp_avg f4 [2]
000000 18 1b 91 be 95 13 df 3d
       -0.28340983 0.10892407

exp_avg_sq f4 [2]
000000 17 49 f0 3b 56 55 cb 3a
       0.0073329317 0.0015513103

exp_avg f4 [2]
000000 a8 c7 00 c1 27 90 17 bd
       -8.048744 -0.03700271

exp_avg_sq f4 [2]
000000 86 28 af 40 9e 05 c8 3e
       5.4736967 0.39066786

exp_avg f4 [2]
000000 9e a6 25 3f 29 51 b9 be
       0.6470736 -0.36194733

exp_avg_sq f4 [2]
000000 01 72 52 3d ce ad 9a 3e
       0.051378254 0.30210727

exp_avg f4 [2]
000000 a5 20 ea bd 29 d9 b9 bd
       -0.11432008 -0.09074623

exp_avg_sq f4 [2]
000000 b5 ce f7 3b 5e 99 50 3d
       0.007562483 0.050927512

exp_avg f4 [2]
000000 28 54 d8 bd 3b 3f 23 3f
       -0.105629265 0.6376836

exp_avg_sq f4 [2]
000000 80 64 4b 3b ff 80 31 3d
       0.0031035244 0.04333591

exp_avg f4 [2]
000000 ef df 01 c1 f3 43 13 42
       -8.117171 36.816357

exp_avg_sq f4 [2]
000000 f8 6a a6 40 0d fe ad 42
       5.2005577 86.99619

exp_avg f4 [2]
000000 67 d8 8b 3d 46 38 92 bf
       0.06828385 -1.1423423

exp_avg_sq f4 [2]
000000 0c a9 13 3d 28 fb 50 3e
       0.036049888 0.20408309

exp_avg f4 [2]
000000 9e 3d 1e bd a0 27 0f 3e
       -0.03863298 0.1397996

exp_avg_sq f4 [2]
000000 d3 72 45 3b 09 a0 7a 3c
       0.0030128255 0.015296944

exp_avg f4 [2]
000000 09 ac 85 3e fa c7 37 be
       0.26107815 -0.17947379

exp_avg_sq f4 [2]
000000 c6 3a b5 3b d0 bc 1d 3c
       0.005530688 0.009627536

exp_avg f4 [2]
000000 4e dc 38 41 a9 16 8e c1
       11.553785 -17.761065

exp_avg_sq f4 [2]
000000 7c 5b 00 41 72 05 9f 41
       8.022335 19.877659

exp_avg f4 [2, 1]
000000 79 29 d9 be 00 00 00 00
       -0.42414454 0.0

exp_avg_sq f4 [2, 1]
000000 5b 05 43 3c 00 00 00 00
       0.011903132 0.0

exp_avg f4 [2]
000000 41 34 88 c2 00 00 00 00
       -68.10206 0.0

exp_avg_sq f4 [2]
000000 f3 34 90 43 00 00 00 00
       288.41367 0.0

exp_avg f4 [1, 2]
000000 b4 59 d2 42 00 00 00 00
       105.1752 0.0

exp_avg_sq f4 [1, 2]
000000 75 13 2c 44 00 00 00 00
       688.304 0.0

exp_avg f4 [2]
000000 7b ed 31 3e 6c ac f6 bf
       0.17375748 -1.9271369

exp_avg_sq f4 [2]
000000 93 1e 37 3c 09 de 85 3e
       0.011176723 0.26145962

exp_avg f4 [2]
000000 08 ba 13 40 d0 ab bf 3f
       2.3082294 1.4974308

exp_avg_sq f4 [2]
000000 83 9f b2 3e 42 0d 3b 3e
       0.34887323 0.18266776

exp_avg f4 [2]
000000 d1 22 d6 40 c3 a5 37 c1
       6.69175 -11.477969

exp_avg_sq f4 [2]
000000 70 18 77 40 77 38 fb 40
       3.8608665 7.8506427

exp_avg f4 [2]
000000 41 99 43 c0 b9 1b d8 c0
       -3.0562289 -6.753384

exp_avg_sq f4 [2]
000000 4d 45 f6 3e d6 11 46 40
       0.48099747 3.0948386

exp_avg f4 [2]
000000 e5 f1 bd bd cf 70 12 c0
       -0.09274653 -2.2881353

exp_avg_sq f4 [2]
000000 10 e6 6d 3b 57 91 aa 3e
       0.0036300458 0.3331401

exp_avg f4 [2]
000000 91 0d 30 40 4b 6d b4 3f
       2.750828 1.4095854

exp_avg_sq f4 [2]
000000 8b 59 ef 3e b1 00 17 3e
       0.46748003 0.14746358

exp_avg f4 [2]
000000 24 c2 64 40 59 8f ed c0
       3.5743494 -7.4237485

exp_avg_sq f4 [2]
000000 b6 95 8a 3f e3 59 53 40
       1.0826938 3.3023612

exp_avg f4 [2]
000000 a0 50 18 c0 69 94 86 c0
       -2.379921 -4.2056165

exp_avg_sq f4 [2]
000000 02 2d 9d 3e f1 fb 94 3f
       0.306984 1.1639386

exp_avg f4 [2]
000000 a2 cb 1f c1 95 6b d3 40
       -9.987215 6.6068826

exp_avg_sq f4 [2]
000000 0b 90 ac 40 7f da 09 40
       5.3925834 2.153961

exp_avg f4 [2]
000000 43 f2 a6 c0 ac c8 5c 40
       -5.217073 3.449748

exp_avg_sq f4 [2]
000000 c9 1c be 3f 8c 62 14 3f
       1.4852535 0.5796287

exp_avg f4 [4]
000000 91 7a 87 3f dd ab 08 40 61 aa 4a bf 31 12 9e 3f
       1.0584279 2.1354897 -0.7916623 1.2349302

exp_avg_sq f4 [4]
000000 f6 8e ab 3d e4 a9 95 3e 86 0b 48 3d 88 5a f4 3d
       0.08376877 0.2923118 0.048839115 0.1193133

exp_avg f4 [4]
000000 f3 a8 e9 3f 64 d0 09 c0 8d 1b fe 3f 47 18 5b be
       1.8254684 -2.1533442 1.9852158 -0.2139598

exp_avg_sq f4 [4]
000000 79 2d 52 3e 63 4d 95 3e 34 d9 82 3e 58 05 f1 3c
       0.20525159 0.29160604 0.25556338 0.029421493

exp_avg f4 [4]
000000 5f a2 c6 40 4d c3 c4 40 ff 4d 5d be e4 ef c7 40
       6.2073207 6.1488404 -0.21611784 6.2480335

exp_avg_sq f4 [4]
000000 b1 f8 10 40 44 7d 13 40 f1 f2 f4 3d f2 92 0b 40
       2.265179 2.3045206 0.119604 2.1808438

exp_avg f4 [4]
000000 eb 8f 3a be 03 de b9 40 ae 74 43 c0 a0 98 18 40
       -0.18218963 5.808351 -3.0539966 2.3843155

exp_avg_sq f4 [4]
000000 f5 f8 ba 3c 89 05 03 40 4c 71 f4 3e 18 a3 db 3e
       0.02282379 2.0472128 0.4774269 0.42897868

exp_avg f4 [2]
000000 c8 2c 47 41 01 da 8c c1
       12.448433 -17.606447

exp_avg_sq f4 [2]
000000 90 dd 1e 41 2f 7b 9d 41
       9.929092 19.685148

exp_avg f4 [2]
000000 ca 16 c1 40 9c 99 0c c1
       6.034032 -8.787502

exp_avg_sq f4 [2]
000000 7a d9 11 40 b9 d0 9b 40
       2.2788987 4.869229

exp_avg f4 [4]
000000 12 b8 b1 bf 3b 54 91 bf fb 30 c0 3f 0a e2 df bf
       -1.3884299 -1.135383 1.5014948 -1.7490857

exp_avg_sq f4 [4]
000000 77 4d 0f 3e 13 ba 91 3d 2e 2b 0b 3e 3c d2 4e 3e
       0.13994394 0.07115569 0.1359069 0.20197386

exp_avg f4 [4]
000000 97 08 ae be 19 f8 2f 40 0d d6 3f c0 4a 3d 10 bf
       -0.3399093 2.7495177 -2.9974396 -0.5634352

exp_avg_sq f4 [4]
000000 02 43 7c 3c 80 df f3 3e 94 25 12 3f a0 f6 bd 3c
       0.015396835 0.47631454 0.5708859 0.023188889

exp_avg f4 [4]
000000 71 b4 2b c1 48 da 6e 3f 0c f5 ec 3f 70 f3 17 c1
       -10.731553 0.9330182 1.8512282 -9.496933

exp_avg_sq f4 [4]
000000 af 05 f1 40 26 06 a0 3e 04 97 48 3e b1 e4 c2 40
       7.531944 0.3125469 0.19588858 6.0904164

exp_avg f4 [4]
000000 e8 f1 6e c0 74 dc 7b c0 e6 b6 97 40 80 5a 0e c0
       -3.7335148 -3.9353304 4.7410765 -2.2242737

exp_avg_sq f4 [4]
000000 64 a3 8b 3f ac 82 5d 3f b4 16 ac 3f 5a 6b dc 3e
       1.0909238 0.86527514 1.3444428 0.43050653

exp_avg f4 [2]
000000 01 39 ac c1 4d ff df 41
       -21.527834 27.999659

exp_avg_sq f4 [2]
000000 37 e9 d7 41 83 c9 45 42
       26.988874 49.44679

exp_avg f4 [2]
000000 f0 a9 2f c1 da 77 65 41
       -10.978989 14.341761

exp_avg_sq f4 [2]
000000 2c 5b e2 40 39 e3 4f 41
       7.0736294 12.992974

exp_avg f4 [4]
000000 10 33 0d 40 dd 01 97 3d db 5e 0e c0 75 67 93 3e
       2.2062416 0.07373402 -2.2245395 0.2878987

exp_avg_sq f4 [4]
000000 a2 e1 ae 3e d9 b1 c6 3c e5 63 b4 3e 91 35 d2 3c
       0.3415652 0.024254726 0.35232463 0.025660308

exp_avg f4 [4]
000000 ec ad 98 bf 9d 66 26 c0 9e 9b f9 3f 43 20 1e 40
       -1.1928077 -2.600013 1.9500616 2.470719

exp_avg_sq f4 [4]
000000 d9 54 28 3e e4 15 e6 3e 1b fe 87 3e aa 55 e8 3e
       0.16438617 0.44938576 0.26561055 0.45377856

exp_avg f4 [4]
000000 5c b2 5b 41 0c 49 58 40 cf d9 d0 c0 e3 a7 6b 41
       13.731045 3.3794584 -6.526588 14.728488

exp_avg_sq f4 [4]
000000 8f 0a 3e 41 41 5c 81 3f 84 a7 19 40 99 f0 5a 41
       11.877578 1.0106279 2.4008493 13.68374

exp_avg f4 [4]
000000 55 66 3f 40 1b 47 fd 40 29 05 04 c1 0a fc e3 3f
       2.9906209 7.91493 -8.25126 1.7811291

exp_avg_sq f4 [4]
000000 22 22 66 3f 2b e5 5f 40 f2 d0 80 40 7c 2c bf 3e
       0.8989583 3.4983623 4.025506 0.37338626

exp_avg f4 [2]
000000 13 6e b5 40 5d 2b c7 41
       5.669687 24.896173

exp_avg_sq f4 [2]
000000 7e d2 15 40 8e e9 1c 42
       2.3409724 39.22808

exp_avg f4 [2]
000000 83 9a 42 40 05 71 4c 41
       3.0406806 12.777593

exp_avg_sq f4 [2]
000000 0d 7b 2d 3f c0 74 24 41
       0.67765886 10.278503

exp_avg f4 [4]
000000 21 ce 38 40 c3 8a a0 bc 46 fa 5f c0 2a 7c 49 be
       2.887581 -0.019597417 -3.4996505 -0.19676271

exp_avg_sq f4 [4]
000000 da 15 0b 3f 3c bb 8a 3c b8 74 49 3f a1 78 58 3c
       0.5433022 0.016934983 0.78693724 0.013212354

exp_avg f4 [4]
000000 34 45 11 c0 f0 e2 6b c0 fe 2b ec 3f 21 78 86 40
       -2.2698488 -3.6857262 1.8450925 4.202164

exp_avg_sq f4 [4]
000000 80 05 c8 3e 5c 6c 5b 3f 1d 28 85 3e e3 67 8f 3f
       0.39066696 0.8571222 0.26007167 1.1203579

exp_avg f4 [4]
000000 9c e6 0f 41 4b ba 0e c1 ef 82 2e c1 c4 0c 7a 40
       8.993801 -8.920482 -10.906966 3.9070292

exp_avg_sq f4 [4]
000000 ff 29 97 40 bd fd c0 40 30 13 ed 40 e3 4d c7 3f
       4.7238765 6.030974 7.408592 1.5570644

exp_avg f4 [4]
000000 17 be d6 40 76 1e 77 3f 7b 14 b7 c0 e5 81 7d c0
       6.7107043 0.96530855 -5.72125 -3.9610531

exp_avg_sq f4 [4]
000000 30 71 3a 40 24 cf e3 3d 3d cd 10 40 c4 cc 60 3f
       2.9131584 0.11123493 2.2625268 0.8781245

exp_avg f4 [2]
000000 be a7 9a c0 fa 33 63 c0
       -4.8329763 -3.5500474

exp_avg_sq f4 [2]
000000 19 bd b2 3f b2 05 6f 3f
       1.3963958 0.93368065

exp_avg f4 [2]
000000 69 0f 05 3f 05 c2 25 c0
       0.5197664 -2.589967

exp_avg_sq f4 [2]
000000 11 64 96 3c 13 eb c9 3e
       0.018358262 0.3943716

exp_avg f4 [2]
000000 ab 18 ba 3e c0 96 15 40
       0.36346945 2.337326

exp_avg_sq f4 [2]
000000 14 2e 2f 3e ff 32 f5 3e
       0.17107421 0.4789047

exp_avg f4 [2]
000000 eb c8 c1 bf eb 6b 26 40
       -1.513944 2.6003368

exp_avg_sq f4 [2]
000000 ed 76 26 3e a7 44 dc 3e
       0.16256304 0.43021128

exp_avg f4 [2]
000000 51 da 2a c1 b6 ac 16 40
       -10.6783 2.3542914

exp_avg_sq f4 [2]
000000 d4 b7 e2 40 6d 22 21 3f
       7.08494 0.62943155

exp_avg f4 [2]
000000 7a 8c a2 be 15 ab 3a 3f
       -0.317478 0.729173

exp_avg_sq f4 [2]
000000 fb fa c5 3c 2e 6f 95 3d
       0.024167528 0.072965965

exp_avg f4 [2]
000000 64 73 90 c0 20 58 4a c0
       -4.514086 -3.1616287

exp_avg_sq f4 [2]
000000 4d 2b b8 3f d2 08 2d 3f
       1.4388214 0.67591584

exp_avg f4 [2]
000000 31 65 eb be 99 2a 9c 3e
       -0.4597564 0.3050125

exp_avg_sq f4 [2]
000000 26 f8 09 3d 9d d7 fb 3c
       0.03368392 0.03074246

exp_avg f4 [2, 1]
000000 9d 2f a7 be 7a 9e c5 be
       -0.32653514 -0.3859747

exp_avg_sq f4 [2, 1]
000000 ca e1 e7 3b 92 cd 21 3c
       0.0070764767 0.009875672

exp_avg f4 [2]
000000 5f f6 4f c2 b1 d1 75 c2
       -51.990597 -61.454777

exp_avg_sq f4 [2]
000000 ac ac 29 43 1d f4 6c 43
       169.6745 236.95357

exp_avg f4 [1, 2]
000000 32 cf aa c0 53 1b 19 c0
       -5.3377924 -2.3922927

exp_avg_sq f4 [1, 2]
000000 75 0c de 3f d9 30 ac 3e
       1.7347552 0.33631018

exp_avg f4 [2]
000000 00 00 00 00 00 00 00 00
       0.0 0.0

exp_avg_sq f4 [2]
000000 00 00 00 00 00 00 00 00
       0.0 0.0

exp_avg f4 [2]
000000 00 00 00 00 00 00 00 00
       0.0 0.0

exp_avg_sq f4 [2]
000000 00 00 00 00 00 00 00 00
       0.0 0.0

exp_avg f4 [2]
000000 00 00 00 00 00 00 00 00
       0.0 0.0

exp_avg_sq f4 [2]
000000 00 00 00 00 00 00 00 00
       0.0 0.0

exp_avg f4 [2]
000000 00 00 00 00 00 00 00 00
       0.0 0.0

exp_avg_sq f4 [2]
000000 00 00 00 00 00 00 00 00
       0.0 0.0

exp_avg f4 [2]
000000 3f 36 39 3f 40 89 12 3f
       0.723484 0.57240677

exp_avg_sq f4 [2]
000000 75 31 28 3d 0e 4c 16 3d
       0.04106279 0.036693625

exp_avg f4 [2]
000000 7d d5 23 bf 68 bd 18 3e
       -0.6399763 0.14916003

exp_avg_sq f4 [2]
000000 00 46 00 3d 32 bb 02 3b
       0.031316757 0.0019948003

exp_avg f4 [2]
000000 58 86 2f 3f e9 2d 0a 40
       0.6856437 2.1590521

exp_avg_sq f4 [2]
000000 50 df 1f 3d 57 5a f2 3e
       0.039031327 0.4733455

exp_avg f4 [2]
000000 38 92 57 3f 78 4f 6d bf
       0.8420749 -0.92699385

exp_avg_sq f4 [2]
000000 b3 cb 72 3d 72 b6 6a 3d
       0.059276294 0.0573029

exp_avg f4 [2]
000000 6b d0 82 be 5a c3 1e be
       -0.25549635 -0.15504208

exp_avg_sq f4 [2]
000000 ad 26 7c 3b c5 ca fd 3a
       0.00384752 0.0019362798

exp_avg f4 [2]
000000 04 a4 05 3f 68 a1 1e be
       0.52203393 -0.15491259

exp_avg_sq f4 [2]
000000 24 01 9e 3c 08 ee f0 3a
       0.019287653 0.0018381486

exp_avg f4 [2]
000000 fa 36 8c bf e8 22 aa bf
       -1.0954278 -1.3291903

exp_avg_sq f4 [2]
000000 5c 61 85 3d ed 5e 01 3e
       0.065127105 0.12633868

exp_avg f4 [2]
000000 28 44 72 bf b6 67 70 3f
       -0.9463525 0.9390825

exp_avg_sq f4 [2]
000000 36 a6 89 3d a6 6d 4d 3d
       0.06721155 0.050153397

exp_avg f4 [2]
000000 4d da 77 bf b1 b1 26 bf
       -0.96817476 -0.65114886

exp_avg_sq f4 [2]
000000 8c a1 6d 3d b9 a9 17 3d
       0.05801539 0.037027095

exp_avg f4 [2]
000000 9d dc e2 3f 82 a3 02 bf
       1.7723576 -0.51030743

exp_avg_sq f4 [2]
000000 72 9a 67 3e 35 2b a7 3c
       0.2261751 0.020406345

exp_avg f4 [2]
000000 a3 8a 63 c0 ba b7 95 c0
       -3.5553367 -4.6786776

exp_avg_sq f4 [2]
000000 df a0 32 3f 99 47 d1 3f
       0.6977672 1.6349975

exp_avg f4 [2]
000000 41 e2 49 c0 9e 3b 48 40
       -3.1544344 3.1286387

exp_avg_sq f4 [2]
000000 f5 f9 42 3f 48 99 11 3f
       0.76162654 0.56874514

exp_avg f4 [2]
000000 f5 cb 1f 3f b3 75 c1 3e
       0.6242059 0.3778511

exp_avg_sq f4 [2]
000000 87 52 c9 3c 35 7e 5d 3c
       0.024575485 0.01351886

exp_avg f4 [2]
000000 e1 f9 9a bf 7b 85 b6 3e
       -1.2107507 0.35648713

exp_avg_sq f4 [2]
000000 0d bf dc 3d 23 8a 24 3c
       0.107786275 0.0100427

exp_avg f4 [2]
000000 cb 5b 1e 40 ca be 46 40
       2.4743526 3.1053948

exp_avg_sq f4 [2]
000000 ef 62 ae 3e da 7e 40 3f
       0.34059855 0.7519356

exp_avg f4 [2]
000000 0e 45 0b 40 be a1 09 c0
       2.1760898 -2.150497

exp_avg_sq f4 [2]
000000 79 e4 bd 3e e7 d4 8c 3e
       0.37088373 0.27506182

exp_avg f4 [2]
000000 4a db 09 bc 7c 29 38 be
       -0.008414099 -0.17984575

exp_avg_sq f4 [2]
000000 ba 2a 07 3c b1 cc 0c 3c
       0.008249933 0.008593724

exp_avg f4 [2]
000000 66 6a 2a bf cc a6 7d 3e
       -0.665686 0.24770659

exp_avg_sq f4 [2]
000000 87 08 0e 3d de d3 a6 3b
       0.0346761 0.0050911745

exp_avg f4 [2]
000000 b7 ba ec 3f 82 39 8a 3f
       1.8494481 1.07988

exp_avg_sq f4 [2]
000000 4e 3b 46 3e 12 49 43 3e
       0.1935856 0.19070843

exp_avg f4 [2]
000000 db d2 ad 3f 65 66 ad bf
       1.3579973 -1.3546873

exp_avg_sq f4 [2]
000000 e7 0e 16 3e 97 ca de 3d
       0.14654122 0.10878485

exp_avg f4 [2]
000000 da 1e 2d 3a 22 7e 0a 3d
       0.00066040235 0.033811696

exp_avg_sq f4 [2]
000000 26 ba 68 38 2c 57 c8 39
       5.5486475e-05 0.0003821192

exp_avg f4 [2]
000000 3c d5 af 39 07 a6 05 ba
       0.00033537473 -0.00050982874

exp_avg_sq f4 [2]
000000 82 ef 8c 35 df 35 25 35
       1.0500519e-06 6.154568e-07

exp_avg f4 [2]
000000 12 76 26 bd 46 f4 c5 3c
       -0.040639944 0.02416433

exp_avg_sq f4 [2]
000000 68 b7 63 3a fd ae 25 3a
       0.00086866925 0.0006320326

exp_avg f4 [2]
000000 a6 fd 86 39 63 3d e7 b9
       0.00025747454 -0.0004410549

exp_avg_sq f4 [2]
000000 6d e8 86 35 b9 37 6e 36
       1.0051423e-06 3.5497198e-06

exp_avg f4 [2]
000000 df c5 69 bf 02 5e 01 bf
       -0.9131755 -0.5053407

exp_avg_sq f4 [2]
000000 09 fe 52 3d 52 5e ba 3c
       0.051511798 0.022750054

exp_avg f4 [2]
000000 e1 5e 02 40 93 fa 1b bf
       2.037041 -0.6092922

exp_avg_sq f4 [2]
000000 4c b1 99 3e bc 04 ef 3c
       0.3001808 0.029177062

exp_avg f4 [2]
000000 e2 3d 8c c0 09 05 a1 c0
       -4.382554 -5.0318646

exp_avg_sq f4 [2]
000000 77 8c 86 3f e1 d6 f1 3f
       1.0511616 1.8893701

exp_avg f4 [2]
000000 99 b0 6e c0 1f f6 6b 40
       -3.7295287 3.686897

exp_avg_sq f4 [2]
000000 84 67 88 3f eb ee 49 3f
       1.065659 0.78880185

exp_avg f4 [2]
000000 06 62 2e 3d cc 28 a6 bc
       0.04257395 -0.020283125

exp_avg_sq f4 [2]
000000 03 cc 46 39 db d1 71 38
       0.00018958752 5.765432e-05

exp_avg f4 [2]
000000 9c a4 9c 39 01 bf 26 bc
       0.00029877282 -0.010177375

exp_avg_sq f4 [2]
000000 c3 6c f1 35 81 5b 46 38
       1.7987553e-06 4.72921e-05

exp_avg f4 [2]
000000 3f d1 82 3d e6 b7 df 3c
       0.06387567 0.02730937

exp_avg_sq f4 [2]
000000 87 fb d7 39 c7 9f ba 39
       0.00041195398 0.00035595728

exp_avg f4 [2]
000000 c9 de 98 bb 81 6c ba ba
       -0.00466523 -0.001422301

exp_avg_sq f4 [2]
000000 fc df 85 37 4c 82 00 37
       1.5959136e-05 7.659732e-06

exp_avg f4 [2]
000000 2a 51 f6 bb 62 b5 8d bc
       -0.0075169997 -0.017298404

exp_avg_sq f4 [2]
000000 df af c2 37 56 67 5c 38
       2.3208499e-05 5.2548326e-05

exp_avg f4 [2]
000000 12 4b 92 3d eb cc 60 39
       0.07143225 0.00021438643

exp_avg_sq f4 [2]
000000 2a 59 14 3a 98 9e df 38
       0.00056590384 0.00010663009

exp_avg f4 [2]
000000 b1 7a 18 3b f8 55 bf 3a
       0.002326649 0.0014597764

exp_avg_sq f4 [2]
000000 12 f2 e7 37 e2 f9 8e 38
       2.7650069e-05 6.817632e-05

exp_avg f4 [2]
000000 d9 b1 ae 3b 33 a3 8c 3c
       0.0053312597 0.017167663

exp_avg_sq f4 [2]
000000 cf 53 bd 39 7c 48 55 39
       0.0003611133 0.00020340265

exp_avg f4 [2]
000000 98 10 1a be bb 55 1d be
       -0.15045393 -0.15364735

exp_avg_sq f4 [2]
000000 5a ca 4f 3b 1d e9 81 3b
       0.0031706304 0.003964557

exp_avg f4 [2]
000000 85 28 a4 3d d7 84 23 bb
       0.08015541 -0.0024951005

exp_avg_sq f4 [2]
000000 ca 2c 1d 3a d6 e9 4e 38
       0.0005995749 4.9332004e-05

exp_avg f4 [2]
000000 55 ee da 3d 55 48 a6 3d
       0.106899895 0.08119265

exp_avg_sq f4 [2]
000000 ae e2 b1 3b 34 41 03 3d
       0.0054286337 0.032044604

exp_avg f4 [2]
000000 d2 53 6e 3d 8e 29 9c 3a
       0.058185406 0.001191424

exp_avg_sq f4 [2]
000000 06 73 37 3a e3 e1 38 39
       0.0006998036 0.00017631757

exp_avg f4 [2]
000000 c6 7f 3a be 88 70 3b be
       -0.18212804 -0.18304646

exp_avg_sq f4 [2]
000000 e4 bd 96 3b 60 57 df 3b
       0.0046002734 0.006815836

exp_avg f4 [2]
000000 cf 6b 42 3f 1c 5b 12 3e
       0.7594575 0.14292568

exp_avg_sq f4 [2]
000000 8c cb 54 3d 84 47 9f 3a
       0.05195193 0.0012152051

exp_avg f4 [2]
000000 a3 fe c9 bf ae df 45 bf
       -1.5780834 -0.77294433

exp_avg_sq f4 [2]
000000 82 47 2e 3e bd c0 92 3d
       0.17019466 0.07165668

exp_avg f4 [2]
000000 1c a5 89 bf 08 72 8c bd
       -1.0753512 -0.06857687

exp_avg_sq f4 [2]
000000 60 8f d2 3d 31 6b 12 3b
       0.10281253 0.0022341723

exp_avg f4 [2]
000000 6f 71 07 be a1 ad 80 bd
       -0.13226865 -0.06283117

exp_avg_sq f4 [2]
000000 8c 43 14 3b 6a a3 e1 3a
       0.002262327 0.0017214839

exp_avg f4 [2]
000000 1c 25 02 3f 41 a2 e9 bd
       0.50837874 -0.114079006

exp_avg_sq f4 [2]
000000 e7 6e 93 3c 47 a7 83 3a
       0.017997218 0.0010044359

exp_avg f4 [2]
000000 da 61 11 bf e5 4f 8b bf
       -0.56789935 -1.0883757

exp_avg_sq f4 [2]
000000 85 46 b3 3c 79 65 d3 3d
       0.021884212 0.10322089

exp_avg f4 [2]
000000 4e b2 74 bf 27 34 d6 3e
       -0.9558457 0.41836664

exp_avg_sq f4 [2]
000000 35 aa 8a 3d 40 a1 4e 3c
       0.06770746 0.012611687

exp_avg f4 [2]
000000 7a 19 5d bf 92 2d 84 be
       -0.86367 -0.25816017

exp_avg_sq f4 [2]
000000 0a be 46 3d a9 8a 10 3c
       0.04852108 0.008822122

exp_avg f4 [2]
000000 72 3a c9 3f b7 d7 e1 be
       1.5720961 -0.4410989

exp_avg_sq f4 [2]
000000 9b 9c 37 3e 0c e2 7e 3c
       0.17930834 0.015556823

exp_avg f4 [2]
000000 3e 19 89 c0 d4 64 03 c0
       -4.2843313 -2.053029

exp_avg_sq f4 [2]
000000 e8 2c 80 3f 66 41 99 3e
       1.0013704 0.29932708

exp_avg f4 [2]
000000 dd 77 33 c0 2a 42 26 40
       -2.8041909 2.5977883

exp_avg_sq f4 [2]
000000 d8 ad 11 3f 7a 35 ae 3e
       0.5690589 0.34025174

exp_avg f4 [2]
000000 ca 17 4b bf b6 1f 0b bf
       -0.79333174 -0.5434526

exp_avg_sq f4 [2]
000000 e9 56 1f 3d d0 5f c1 3c
       0.038901243 0.023605257

exp_avg f4 [2]
000000 84 6a ee 3f be cd 04 bf
       1.8626256 -0.5187644

exp_avg_sq f4 [2]
000000 26 70 7e 3e a6 fd a4 3c
       0.24847469 0.02014048

exp_avg f4 [2]
000000 59 2f 41 c0 c9 73 31 c0
       -3.0185149 -2.772692

exp_avg_sq f4 [2]
000000 dd 15 03 3f 9c cf 24 3f
       0.51205236 0.64379287

exp_avg f4 [2]
000000 83 88 35 c0 56 2f 2a 40
       -2.836457 2.6591392

exp_avg_sq f4 [2]
000000 a4 0c 29 3f d8 b7 d3 3e
       0.66034913 0.413512

exp_avg f4 [2]
000000 c3 86 07 bf da a0 f6 be
       -0.52940005 -0.48169595

exp_avg_sq f4 [2]
000000 82 48 93 3c 28 05 a2 3c
       0.01797891 0.01977785

exp_avg f4 [2]
000000 c1 23 88 3f 6f 38 b1 be
       1.0635911 -0.34613368

exp_avg_sq f4 [2]
000000 42 52 a4 3d 65 d2 0a 3c
       0.08023502 0.0084730135

exp_avg f4 [2]
000000 bd a8 e9 bf 0c e6 34 c0
       -1.825462 -2.826541

exp_avg_sq f4 [2]
000000 99 7c 44 3e 54 3e 18 3f
       0.19188155 0.59470105

exp_avg f4 [2]
000000 23 d5 f5 bf 26 9c e9 3f
       -1.9205669 1.8250778

exp_avg_sq f4 [2]
000000 d6 2c 8d 3e 11 35 46 3e
       0.2757327 0.1935618

exp_avg f4 [2, 1]
000000 00 00 00 00 90 52 b3 3e
       0.0 0.35023928

exp_avg_sq f4 [2, 1]
000000 00 00 00 00 ad 38 05 3c
       0.0 0.008131188

exp_avg f4 [2]
000000 00 00 00 00 3d 3a 60 42
       0.0 56.056873

exp_avg_sq f4 [2]
000000 00 00 00 00 92 76 43 43
       0.0 195.46317

exp_avg f4 [1, 2]
000000 00 00 00 00 fb 1c 8f c2
       0.0 -71.5566

exp_avg_sq f4 [1, 2]
000000 00 00 00 00 82 2c 9f 43
       0.0 318.34772

exp_avg f4 [2, 16, 1]
000000 00 00 00 00 31 f3 c0 c1 6b 45 ef c2 ff 3a 10 c3
       0.0 -24.118746 -119.63558 -144.23045
000010 d2 30 ae c2 7e a7 3e c2 8f 96 bb bc b8 1f 0a c3
       -87.09535 -47.663567 -0.02289894 -138.1239
000020 8c 89 74 bd 2d 21 00 bf 3f 06 63 bf 86 58 43 c0
       -0.059701487 -0.5005062 -0.88681406 -3.052278
000030 3b 5e 04 c2 e2 62 58 c1 a6 01 c6 c1 a0 c0 45 c2
       -33.092022 -13.524141 -24.750805 -49.43811
000040 00 00 00 00 b6 5a a0 40 37 d2 9e 40 3f 2e 18 41
       0.0 5.011073 4.963161 9.511291
000050 00 0c 0f 41 e2 9c c9 3f b3 a3 31 3d 5d c5 17 41
       8.94043 1.5751002 0.043369006 9.485684
000060 61 cd 95 3d c0 15 b1 3c 67 eb 40 3f f0 76 7f 3f
       0.073145635 0.021616817 0.75359195 0.9979086
000070 69 b2 da 40 48 b8 1f 3e 84 11 a8 3f 7b 02 23 40
       6.8342786 0.15597641 1.3130345 2.5470264

exp_avg_sq f4 [2, 16, 1]
000000 00 00 00 00 85 55 11 42 cc dd 5b 44 e6 de a6 44
       0.0 36.333515 879.4656 1334.9656
000010 38 68 00 44 43 62 13 43 8f f2 30 39 4f ce 95 44
       513.6284 147.38383 0.00016875028 1198.4471
000020 b7 b5 ac 39 2b 18 b9 3c e2 9e 8a 3d f9 17 17 3f
       0.00032941785 0.022594532 0.06768586 0.59020954
000030 7a 16 9e 42 6c 45 2d 41 02 53 21 42 4f 34 26 43
       79.0439 10.829449 40.331062 166.20433
000040 00 00 00 00 69 1a 93 40 13 a3 a6 40 26 13 96 41
       0.0 4.596974 5.2074065 18.75935
000050 69 a9 8e 41 a8 aa 5d 3f d6 7b b6 3a 11 42 86 41
       17.83272 0.86588526 0.0013922404 16.782259
000060 b7 41 4f 3a 84 18 40 39 a0 f2 cc 3d 19 fe 0b 3e
       0.00079062156 0.0001831968 0.100072145 0.1367115
000070 e2 8e 0c 41 0b 04 dd 3b 5b 95 d4 3e 3c 9d ad 3f
       8.7848835 0.0067448667 0.415202 1.3563609

exp_avg f4 [2]
000000 0d 73 11 c1 8c 19 25 40
       -9.090589 2.5796843

exp_avg_sq f4 [2]
000000 70 ca ad 40 6f bd 79 3f
       5.4309616 0.9755468

exp_avg f4 [1, 2, 1]
000000 df 3b 04 c4 13 92 2e bf
       -528.9355 -0.6819164

exp_avg_sq f4 [1, 2, 1]
000000 90 a0 88 46 7f 9a 1d 3e
       17488.281 0.15390967

gem_network.gem_convs.0.neighbour_kernel.kernels.8.weights f4 [2]
000000 25 ed a8 bd 5d 0a 83 3e
       -0.08248357 0.25593844

gem_network.gem_convs.0.neighbour_kernel.kernels.9.weights f4 [2]
000000 00 bb 16 bf 68 71 03 bf
       -0.5887909 -0.5134492

gem_network.gem_convs.0.neighbour_kernel.kernels.10.weights f4 [2]
000000 1b 03 d5 bd a4 57 07 3f
       -0.10400983 0.52868104

gem_network.gem_convs.0.neighbour_kernel.kernels.11.weights f4 [2]
000000 5b 07 0a 3d 51 13 2c bf
       0.03369842 -0.67216974

gem_network.gem_convs.0.neighbour_kernel.kernels.12.weights f4 [2]
000000 19 99 eb 3e be 96 87 be
       0.46015242 -0.26482195

gem_network.gem_convs.0.neighbour_kernel.kernels.13.weights f4 [2]
000000 35 08 00 3f 1e 84 ff be
       0.5001252 -0.49905485

gem_network.gem_convs.0.neighbour_kernel.kernels.14.weights f4 [2]
000000 77 68 fa 3e 9e 1d 01 bf
       0.48907825 -0.5043582

gem_network.gem_convs.0.neighbour_kernel.kernels.15.weights f4 [2]
000000 5b a1 2b 3f d4 6a 0d 3f
       0.67043084 0.5524113

gem_network.gem_convs.0.neighbour_kernel.kernels.16.weights f4 [2]
000000 08 69 15 bf f3 a8 30 3f
       -0.5836339 0.69007796

gem_network.gem_convs.0.neighbour_kernel.kernels.17.weights f4 [2]
000000 c5 92 a7 3e 38 63 d1 3e
       0.32729164 0.4089601

gem_network.gem_convs.0.neighbour_kernel.kernels.18.weights f4 [2]
000000 74 5e 15 bf 3c 28 11 3e
       -0.5834725 0.14175504

gem_network.gem_convs.0.neighbour_kernel.kernels.19.weights f4 [2]
000000 6a 2d 23 bf 24 33 20 bf
       -0.6374117 -0.62578034

gem_network.gem_convs.0.neighbour_kernel.kernels.20.weights f4 [2]
000000 66 56 97 3e 5f a6 0a 3f
       0.29558104 0.5416011

gem_network.gem_convs.0.neighbour_kernel.kernels.21.weights f4 [2]
000000 15 2b 61 3e 0d 71 0b 3f
       0.2198909 0.54469377

gem_network.gem_convs.0.neighbour_kernel.kernels.22.weights f4 [2]
000000 84 ff 2c bf 33 d0 b1 be
       -0.67577386 -0.34729156

gem_network.gem_convs.0.neighbour_kernel.kernels.23.weights f4 [2]
000000 97 ac 1c bf 1a 81 c7 3e
       -0.6120085 0.38965684

gem_network.gem_convs.0.distance_weight.mlp.0.weight f4 [2, 1]
000000 b9 ab 6e 3d fe e3 21 bf
       0.058269236 -0.63238513

gem_network.gem_convs.0.distance_weight.mlp.0.bias f4 [2]
000000 60 50 63 3f be 2c 1e bf
       0.8879452 -0.6178702

gem_network.gem_convs.0.distance_weight.mlp.1.weight f4 [1, 2]
000000 ba 3f 13 bf b9 9b 18 3f
       -0.57519114 0.59612614

gem_network.gem_convs.1.neighbour_kernel.kernels.2.weights f4 [2]
000000 79 80 8e 3e b8 db 07 3e
       0.27832392 0.1326741

gem_network.gem_convs.1.neighbour_kernel.kernels.3.weights f4 [2]
000000 89 f4 10 3f d6 57 2a bf
       0.5662313 -0.66540277

gem_network.gem_convs.1.neighbour_kernel.kernels.4.weights f4 [2]
000000 bd 05 e4 be 45 68 12 bf
       -0.44535628 -0.5719035

gem_network.gem_convs.1.neighbour_kernel.kernels.5.weights f4 [2]
000000 e5 cd 63 be 9d cb b7 bd
       -0.22246511 -0.08974383

gem_network.gem_convs.1.neighbour_kernel.kernels.8.weights f4 [2]
000000 2b 95 ec 3e 15 92 03 3e
       0.46207556 0.12848695

gem_network.gem_convs.1.neighbour_kernel.kernels.9.weights f4 [2]
000000 7d c4 ea 3e fb cd 06 3e
       0.45853034 0.13164513

gem_network.gem_convs.1.neighbour_kernel.kernels.10.weights f4 [2]
000000 18 2a b9 3e 58 ed 13 bf
       0.36164927 -0.5778403

gem_network.gem_convs.1.neighbour_kernel.kernels.11.weights f4 [2]
000000 a8 cb 0f 3f 54 76 24 bf
       0.5617013 -0.64243054

gem_network.gem_convs.1.neighbour_kernel.kernels.12.weights f4 [2]
000000 fe 1c 6a be 54 f9 b9 be
       -0.22862622 -0.36323035

gem_network.gem_convs.1.neighbour_kernel.kernels.13.weights f4 [2]
000000 04 a7 e2 bd c9 1e 1b 3d
       -0.11067012 0.037871156

gem_network.gem_convs.1.neighbour_kernel.kernels.14.weights f4 [4]
000000 90 b1 8f be 6e 90 a3 be e5 42 a6 3e e1 7a 63 3d
       -0.28065157 -0.3194613 0.3247291 0.05553711

gem_network.gem_convs.1.neighbour_kernel.kernels.15.weights f4 [4]
000000 87 70 ac be 81 3c f4 bd 41 3f b4 3e 30 00 33 3e
       -0.33679602 -0.11925603 0.3520451 0.1748054

gem_network.gem_convs.1.neighbour_kernel.kernels.16.weights f4 [4]
000000 0d 06 e7 3c 8a 45 91 be e3 85 0b be 6a 58 ae bd
       0.028201127 -0.28373367 -0.13625292 -0.085129574

gem_network.gem_convs.1.neighbour_kernel.kernels.17.weights f4 [4]
000000 5b 03 f4 3e 1e d3 75 be c2 76 c3 3d 76 c4 01 bf
       0.4765881 -0.24006316 0.09544136 -0.506904

gem_network.gem_convs.1.neighbour_kernel.kernels.18.weights f4 [2]
000000 c2 68 84 bd e0 76 a9 3e
       -0.064652935 0.33098507

gem_network.gem_convs.1.neighbour_kernel.kernels.19.weights f4 [2]
000000 0e d8 af 3e 29 5d 05 3e
       0.34344524 0.13023819

gem_network.gem_convs.1.neighbour_kernel.kernels.20.weights f4 [4]
000000 ef bc d7 3e e0 3d 95 be a3 9c b6 be 64 9e 9f 3e
       0.42136332 -0.2914877 -0.3566638 0.3117553

gem_network.gem_convs.1.neighbour_kernel.kernels.21.weights f4 [4]
000000 ef c2 f9 3d 6e 05 cc 3e de 2e cd 3d ca 84 fe bd
       0.12195384 0.39847893 0.10018705 -0.12427671

gem_network.gem_convs.1.neighbour_kernel.kernels.22.weights f4 [4]
000000 14 3c fc 3e 9e ce 82 be 6a f3 16 be 31 7f b8 3e
       0.49264586 -0.2554826 -0.14741293 0.3603454

gem_network.gem_convs.1.neighbour_kernel.kernels.23.weights f4 [4]
000000 e0 19 ea be bb 2c a8 bd 2e 22 ca 3e a5 e2 82 3e
       -0.45722866 -0.08211657 0.39479202 0.2556354

gem_network.gem_convs.1.neighbour_kernel.kernels.24.weights f4 [2]
000000 62 1c 1d 3f e9 37 84 be
       0.61371434 -0.25823906

gem_network.gem_convs.1.neighbour_kernel.kernels.25.weights f4 [2]
000000 15 cc 4f bd 34 69 31 bf
       -0.050731737 -0.6930115

gem_network.gem_convs.1.neighbour_kernel.kernels.26.weights f4 [4]
000000 9f 02 38 be d7 b8 90 3e 3b 77 62 3e 74 ac 5b bc
       -0.1796975 0.28266022 0.22115795 -0.013407815

gem_network.gem_convs.1.neighbour_kernel.kernels.27.weights f4 [4]
000000 93 67 e0 3d 63 48 f5 be ad bd cc 3e 53 2d 9f be
       0.10957255 -0.4790679 0.3998846 -0.31089267

gem_network.gem_convs.1.neighbour_kernel.kernels.28.weights f4 [4]
000000 f7 9f a9 3e 72 ee 8c 3d f7 c9 a7 be 32 41 ce be
       0.33129856 0.06881417 -0.32771274 -0.40284115

gem_network.gem_convs.1.neighbour_kernel.kernels.29.weights f4 [4]
000000 b4 09 e0 3e fd 91 b2 be 87 52 40 be 04 68 c0 3e
       0.43757403 -0.34877005 -0.18781482 0.37579358

gem_network.gem_convs.1.neighbour_kernel.kernels.30.weights f4 [2]
000000 4b 69 8b be ce b7 36 bf
       -0.2722877 -0.71374214

gem_network.gem_convs.1.neighbour_kernel.kernels.31.weights f4 [2]
000000 5f a7 70 3d f9 ed f6 3e
       0.058753368 0.48228434

gem_network.gem_convs.1.neighbour_kernel.kernels.32.weights f4 [4]
000000 95 bb b6 be 16 5e 63 be 95 0c c9 3e 18 e6 42 be
       -0.3568999 -0.2220386 0.39267412 -0.19033086

gem_network.gem_convs.1.neighbour_kernel.kernels.33.weights f4 [4]
000000 d9 4c 2d bd 23 e1 2f 3e 6f 45 2a bd fa c6 ed be
       -0.042309616 0.17175727 -0.041570123 -0.4644087

gem_network.gem_convs.1.neighbour_kernel.kernels.34.weights f4 [4]
000000 70 af bc be 18 58 8c 3e e9 87 4c 3e f7 f0 49 3a
       -0.36852598 0.2741096 0.1997372 0.0007703448

gem_network.gem_convs.1.neighbour_kernel.kernels.35.weights f4 [4]
000000 b9 d6 ac be 2f 3c ba bd 13 14 9d 3d 67 26 92 be
       -0.3375757 -0.0909351 0.076698445 -0.28544924

gem_network.gem_convs.1.self_kernel.kernels.14.weights f4 [2]
000000 e0 63 c3 3e 9f 88 a6 3e
       0.38162136 0.3252611

gem_network.gem_convs.1.self_kernel.kernels.15.weights f4 [2]
000000 db c6 25 3e 7c 14 a7 3e
       0.16189139 0.32632816

gem_network.gem_convs.1.self_kernel.kernels.16.weights f4 [2]
000000 c4 0c 2f 3e 25 0d c6 be
       0.17094713 -0.38681903

gem_network.gem_convs.1.self_kernel.kernels.17.weights f4 [2]
000000 10 a9 0e 3e a0 5a b5 3c
       0.1393168 0.02213794

gem_network.gem_convs.1.self_kernel.kernels.20.weights f4 [2]
000000 a7 58 24 3e 2d b5 9b be
       0.16049443 -0.30411664

gem_network.gem_convs.1.self_kernel.kernels.21.weights f4 [2]
000000 6c 8f 26 3d f2 18 96 be
       0.04066412 -0.29315907

gem_network.gem_convs.1.self_kernel.kernels.22.weights f4 [2]
000000 10 78 df bd e8 5b 6e 3e
       -0.10911572 0.23277247

gem_network.gem_convs.1.self_kernel.kernels.23.weights f4 [2]
000000 b4 b2 41 be 23 7e e0 be
       -0.18915826 -0.43846235

gem_network.gem_convs.1.self_kernel.kernels.26.weights f4 [2]
000000 d8 b9 39 be 80 de b0 bc
       -0.181373 -0.021590471

gem_network.gem_convs.1.self_kernel.kernels.27.weights f4 [2]
000000 7e df e9 be 63 bf 22 bf
       -0.45678324 -0.6357328

gem_network.gem_convs.1.self_kernel.kernels.28.weights f4 [2]
000000 e9 25 0d 3f 5f 63 9e be
       0.5513597 -0.3093519

gem_network.gem_convs.1.self_kernel.kernels.29.weights f4 [2]
000000 f8 73 c1 3e 16 05 09 bf
       0.3778379 -0.53523386

gem_network.gem_convs.1.self_kernel.kernels.32.weights f4 [2]
000000 d9 52 c7 be 64 27 91 3e
       -0.38930395 0.28350365

gem_network.gem_convs.1.self_kernel.kernels.33.weights f4 [2]
000000 57 65 b2 be a3 e3 02 3f
       -0.3484294 0.51128596

gem_network.gem_convs.1.self_kernel.kernels.34.weights f4 [2]
000000 38 57 01 3f 77 6f 82 3d
       0.5052371 0.063689165

gem_network.gem_convs.1.self_kernel.kernels.35.weights f4 [2]
000000 59 34 34 3f 6b df 92 be
       0.70392376 -0.2868608

gem_network.gem_convs.1.distance_weight.mlp.0.weight f4 [2, 1]
000000 f5 49 cf be 1e 38 19 bf
       -0.40486112 -0.59851253

gem_network.gem_convs.1.distance_weight.mlp.0.bias f4 [2]
000000 84 56 0f 3d 29 f9 95 3c
       0.034994617 0.018307285

gem_network.gem_convs.1.distance_weight.mlp.1.weight f4 [1, 2]
000000 7c cd a1 3e d1 41 bf 3e
       0.31602085 0.373549

gem_network.gem_convs.2.neighbour_kernel.kernels.2.weights f4 [2]
000000 e8 94 46 be ac 08 01 bf
       -0.1939274 -0.5040386

gem_network.gem_convs.2.neighbour_kernel.kernels.3.weights f4 [2]
000000 0d 29 01 3f 9e 86 cd 3e
       0.50453264 0.40141767

gem_network.gem_convs.2.neighbour_kernel.kernels.4.weights f4 [2]
000000 10 bf 04 be c0 09 6b 3d
       -0.1296351 0.057382345

gem_network.gem_convs.2.neighbour_kernel.kernels.5.weights f4 [2]
000000 b5 0d e4 be 33 77 98 be
       -0.44541708 -0.29778442

gem_network.gem_convs.2.neighbour_kernel.kernels.8.weights f4 [2]
000000 a8 f9 1a 3f 7d eb 8a bd
       0.60537195 -0.06783197

gem_network.gem_convs.2.neighbour_kernel.kernels.9.weights f4 [2]
000000 c0 d8 00 bf 61 f4 16 bf
       -0.50330734 -0.5896664

gem_network.gem_convs.2.neighbour_kernel.kernels.10.weights f4 [2]
000000 8d 38 fa 3d 98 e5 23 3f
       0.122178175 0.6402221

gem_network.gem_convs.2.neighbour_kernel.kernels.11.weights f4 [2]
000000 26 27 1d bf c2 61 86 be
       -0.6138786 -0.26246458

gem_network.gem_convs.2.neighbour_kernel.kernels.14.weights f4 [2]
000000 24 05 a2 be 05 a8 7f 3d
       -0.31644547 0.062416095

gem_network.gem_convs.2.neighbour_kernel.kernels.15.weights f4 [2]
000000 5d 1a ce 3e cc de 12 3e
       0.4025449 0.14342803

gem_network.gem_convs.2.neighbour_kernel.kernels.16.weights f4 [2]
000000 29 94 14 3f a8 43 60 be
       0.58038574 -0.21900809

gem_network.gem_convs.2.neighbour_kernel.kernels.17.weights f4 [2]
000000 4d c3 91 bd 7e a7 06 bf
       -0.07117329 -0.5259932

gem_network.gem_convs.2.neighbour_kernel.kernels.20.weights f4 [2]
000000 b1 5c 5b 3e 87 84 91 be
       0.21422078 -0.28421423

gem_network.gem_convs.2.neighbour_kernel.kernels.21.weights f4 [2]
000000 f7 ad 17 bf 75 f0 4e be
       -0.59249824 -0.20208915

gem_network.gem_convs.2.neighbour_kernel.kernels.22.weights f4 [2]
000000 0c b0 4d be ce d5 0b bf
       -0.20086688 -0.54623115

gem_network.gem_convs.2.neighbour_kernel.kernels.23.weights f4 [2]
000000 32 8e 6a bd 9c 42 15 3f
       -0.057264514 0.5830476

gem_network.gem_convs.2.neighbour_kernel.kernels.26.weights f4 [2]
000000 bf e5 13 3f 04 d3 ce bd
       0.5777244 -0.10098842

gem_network.gem_convs.2.neighbour_kernel.kernels.27.weights f4 [2]
000000 29 7e 00 3f 3e c7 1e bf
       0.50192505 -0.6202277

gem_network.gem_convs.2.neighbour_kernel.kernels.28.weights f4 [2]
000000 b4 a4 2a bf e3 dc a9 3e
       -0.6665757 0.33176336

gem_network.gem_convs.2.neighbour_kernel.kernels.29.weights f4 [2]
000000 1d 4d 5a 3e b7 22 a1 3e
       0.21318479 0.31471798

gem_network.gem_convs.2.neighbour_kernel.kernels.32.weights f4 [2]
000000 a7 70 c8 bd 77 63 04 bf
       -0.09787112 -0.5171427

gem_network.gem_convs.2.neighbour_kernel.kernels.33.weights f4 [2]
000000 c8 c1 1f be 74 e1 2c be
       -0.15601265 -0.16882879

gem_network.gem_convs.2.neighbour_kernel.kernels.34.weights f4 [2]
000000 a7 13 29 3e db 97 ac bd
       0.16511403 -0.08427402

gem_network.gem_convs.2.neighbour_kernel.kernels.35.weights f4 [2]
000000 35 e8 09 bd d4 bb bb 3e
       -0.033668716 0.3666674

gem_network.gem_convs.2.neighbour_kernel.kernels.38.weights f4 [2]
000000 d1 40 41 3e 1a 58 cb 3e
       0.18872382 0.39715654

gem_network.gem_convs.2.neighbour_kernel.kernels.39.weights f4 [2]
000000 b2 dc 2d 3f b9 a3 d9 be
       0.6791488 -0.42507723

gem_network.gem_convs.2.neighbour_kernel.kernels.40.weights f4 [2]
000000 4f 09 32 bf 11 6f 92 be
       -0.69545454 -0.28600362

gem_network.gem_convs.2.neighbour_kernel.kernels.41.weights f4 [2]
000000 30 a8 9b be ce ce af 3e
       -0.30401754 0.34337467

gem_network.gem_convs.2.neighbour_kernel.kernels.44.weights f4 [2]
000000 c4 f6 d2 3e a9 d3 59 be
       0.41203892 -0.21272148

gem_network.gem_convs.2.neighbour_kernel.kernels.45.weights f4 [2]
000000 fe 75 6a be 93 9f 59 be
       -0.22896573 -0.21252279

gem_network.gem_convs.2.neighbour_kernel.kernels.46.weights f4 [2]
000000 62 2f 25 3f 37 40 26 3e
       0.64525425 0.16235434

gem_network.gem_convs.2.neighbour_kernel.kernels.47.weights f4 [2]
000000 dc 6b 1d 3e bf c6 df be
       0.15373176 -0.4370632

gem_network.gem_convs.2.neighbour_kernel.kernels.50.weights f4 [2]
000000 2c 67 ce 3e 9b c8 dc be
       0.4031309 -0.431218

gem_network.gem_convs.2.neighbour_kernel.kernels.51.weights f4 [2]
000000 6f df 66 be bb e6 06 bf
       -0.2254617 -0.52695817

gem_network.gem_convs.2.neighbour_kernel.kernels.52.weights f4 [2]
000000 ed 09 b2 3e 26 d2 ff bd
       0.34773198 -0.124912545

gem_network.gem_convs.2.neighbour_kernel.kernels.53.weights f4 [2]
000000 82 06 24 3d 79 9d b4 bc
       0.04004527 -0.022047745

gem_network.gem_convs.2.neighbour_kernel.kernels.56.weights f4 [2]
000000 e6 96 a4 be e8 7f ce 3e
       -0.32146376 0.4033196

gem_network.gem_convs.2.neighbour_kernel.kernels.57.weights f4 [2]
000000 fe 42 9c be 12 77 51 be
       -0.3051986 -0.20455578

gem_network.gem_convs.2.neighbour_kernel.kernels.58.weights f4 [2]
000000 64 9b e6 be 09 c4 c6 be
       -0.4504043 -0.38821438

gem_network.gem_convs.2.neighbour_kernel.kernels.59.weights f4 [2]
000000 5e d3 42 be a9 13 2a 3f
       -0.19025943 0.6643625

gem_network.gem_convs.2.neighbour_kernel.kernels.62.weights f4 [2]
000000 cb ca 89 3d 87 1f 86 3e
       0.06728133 0.26195928

gem_network.gem_convs.2.neighbour_kernel.kernels.63.weights f4 [2]
000000 23 cc 2c 3f be 9a 33 3e
       0.6749899 0.17539498

gem_network.gem_convs.2.neighbour_kernel.kernels.64.weights f4 [2]
000000 2a 30 00 be 49 de 26 3e
       -0.12518373 0.16295733

gem_network.gem_convs.2.neighbour_kernel.kernels.65.weights f4 [2]
000000 c6 86 40 be 3d cb b0 3e
       -0.18801412 0.34530059

gem_network.gem_convs.2.neighbour_kernel.kernels.68.weights f4 [2]
000000 78 15 c0 3e ba 68 ba 3e
       0.3751638 0.36408025

gem_network.gem_convs.2.neighbour_kernel.kernels.69.weights f4 [2]
000000 2a af 07 bf 92 1f 71 be
       -0.53001654 -0.235472

gem_network.gem_convs.2.neighbour_kernel.kernels.70.weights f4 [2]
000000 91 93 1b 3f 20 ae 31 be
       0.60772043 -0.1735158

gem_network.gem_convs.2.neighbour_kernel.kernels.71.weights f4 [2]
000000 9f 14 73 3e 3e a0 0b 3f
       0.23738335 0.54541385

gem_network.gem_convs.2.neighbour_kernel.kernels.74.weights f4 [2]
000000 0d f3 fc 3e 37 18 29 3e
       0.49404183 0.16513143

gem_network.gem_convs.2.neighbour_kernel.kernels.75.weights f4 [2]
000000 56 67 21 bf 32 eb 10 be
       -0.63048303 -0.1415222

gem_network.gem_convs.2.neighbour_kernel.kernels.76.weights f4 [2]
000000 f6 72 1b bf 13 85 30 3f
       -0.6072229 0.68953055

gem_network.gem_convs.2.neighbour_kernel.kernels.77.weights f4 [2]
000000 d7 83 b2 3e 26 25 09 3f
       0.3486621 0.5357231

gem_network.gem_convs.2.neighbour_kernel.kernels.80.weights f4 [2]
000000 c3 a2 7b 3e 26 9f 64 3e
       0.24573807 0.22326335

gem_network.gem_convs.2.neighbour_kernel.kernels.81.weights f4 [2]
000000 91 70 09 3f d8 cf 4f 3d
       0.5368739 0.050735325

gem_network.gem_convs.2.neighbour_kernel.kernels.82.weights f4 [2]
000000 94 66 22 3f 65 b9 1f bd
       0.6343777 -0.038995165

gem_network.gem_convs.2.neighbour_kernel.kernels.83.weights f4 [2]
000000 04 73 66 3c 16 9d 2c 3f
       0.014065508 0.67427194

gem_network.gem_convs.2.neighbour_kernel.kernels.86.weights f4 [2]
000000 f8 a5 1e 3d 52 d2 21 3e
       0.0387325 0.15802887

gem_network.gem_convs.2.neighbour_kernel.kernels.87.weights f4 [2]
000000 5e a2 77 3e 22 19 aa be
       0.24183032 -0.332223

gem_network.gem_convs.2.neighbour_kernel.kernels.88.weights f4 [2]
000000 0a 06 eb be 25 35 18 bf
       -0.45903045 -0.5945609

gem_network.gem_convs.2.neighbour_kernel.kernels.89.weights f4 [2]
000000 eb df b5 3d 94 c6 fc 3e
       0.088805996 0.49370253

gem_network.gem_convs.2.neighbour_kernel.kernels.92.weights f4 [2]
000000 9d 22 d9 be 58 cb 9b 3e
       -0.4240922 0.30428576

gem_network.gem_convs.2.neighbour_kernel.kernels.93.weights f4 [2]
000000 fa f5 04 3f d8 24 fa 3e
       0.5193783 0.48856235

gem_network.gem_convs.2.neighbour_kernel.kernels.94.weights f4 [2]
000000 9f ad 8c be 38 83 33 3e
       -0.27476212 0.17530525

gem_network.gem_convs.2.neighbour_kernel.kernels.95.weights f4 [2]
000000 cc 1f 1c 3f 65 af f4 3d
       0.6098602 0.11947516

gem_network.gem_convs.2.distance_weight.mlp.0.weight f4 [2, 1]
000000 f8 2e b9 be 33 5c b3 bb
       -0.36168647 -0.0054736375

gem_network.gem_convs.2.distance_weight.mlp.0.bias f4 [2]
000000 08 34 d9 be 21 c8 f4 3e
       -0.4242251 0.47808936
