test/TES-6/checkpoints/epoch=0.ckpt (torch_old, 75049 bytes, 140 tensors)

gem_network.gem_convs.0.neighbour_kernel.kernels.8.weights f4 [2]
0.5814926 -0.20229763
00000000: b3dc 143f 1c27 4fbe

gem_network.gem_convs.0.neighbour_kernel.kernels.9.weights f4 [2]
-0.17149073 0.13080466
00000000: 449b 2fbe a8f1 053e

gem_network.gem_convs.0.neighbour_kernel.kernels.10.weights f4 [2]
-0.70424736 -0.5939038
00000000: 8e49 34bf 140a 18bf

gem_network.gem_convs.0.neighbour_kernel.kernels.11.weights f4 [2]
0.4304275 -0.4111655
00000000: fe60 dc3e 4984 d2be

gem_network.gem_convs.0.neighbour_kernel.kernels.12.weights f4 [2]
-0.26077747 -0.41373733
00000000: a084 85be 61d5 d3be

gem_network.gem_convs.0.neighbour_kernel.kernels.13.weights f4 [2]
0.1365465 -0.24935761
00000000: d8d2 0b3e 9a57 7fbe

gem_network.gem_convs.0.neighbour_kernel.kernels.14.weights f4 [2]
-0.69787973 0.6139665
00000000: 3fa8 32bf e92c 1d3f

gem_network.gem_convs.0.neighbour_kernel.kernels.15.weights f4 [2]
0.34704977 0.5556149
00000000: 82b0 b13e c73c 0e3f

gem_network.gem_convs.0.neighbour_kernel.kernels.16.weights f4 [2]
-0.16134715 0.36416405
00000000: 3038 25be b673 ba3e

gem_network.gem_convs.0.neighbour_kernel.kernels.17.weights f4 [2]
0.118718505 0.47460908
00000000: b022 f33d f6ff f23e

gem_network.gem_convs.0.neighbour_kernel.kernels.18.weights f4 [2]
0.051264703 0.06913692
00000000: f0fa 513d a897 8d3d

gem_network.gem_convs.0.neighbour_kernel.kernels.19.weights f4 [2]
-0.4581338 -0.6350788
00000000: 8390 eabe 8694 22bf

gem_network.gem_convs.0.neighbour_kernel.kernels.20.weights f4 [2]
0.5433541 0.5810068
00000000: 4119 0b3f ddbc 143f

gem_network.gem_convs.0.neighbour_kernel.kernels.21.weights f4 [2]
-0.054097176 -0.106203675
00000000: 0095 5dbd 5081 d9bd

gem_network.gem_convs.0.neighbour_kernel.kernels.22.weights f4 [2]
0.33327943 0.12217146
00000000: 9aa3 aa3e 0835 fa3d

gem_network.gem_convs.0.neighbour_kernel.kernels.23.weights f4 [2]
-0.06210792 -0.20851952
00000000: e064 7ebd 2486 55be

gem_network.gem_convs.0.distance_weight.mlp.0.weight f4 [2, 1]
0.603534 -0.2542535
00000000: 3481 1a3f 842d 82be

gem_network.gem_convs.0.distance_weight.mlp.0.bias f4 [2]
-0.18267572 -0.36039245
00000000: 580f 3bbe 5c85 b8be

gem_network.gem_convs.0.distance_weight.mlp.1.weight f4 [1, 2]
0.33214897 -0.562114
00000000: 6e0f aa3e b4e6 0fbf

gem_network.gem_convs.1.neighbour_kernel.kernels.2.weights f4 [2]
0.5739849 -0.4483633
00000000: adf0 123f e08f e5be

gem_network.gem_convs.1.neighbour_kernel.kernels.3.weights f4 [2]
-0.50987816 -0.43274292
00000000: 6087 02bf 7b90 ddbe

gem_network.gem_convs.1.neighbour_kernel.kernels.4.weights f4 [2]
-0.11530703 0.42625624
00000000: 1826 ecbd 423e da3e

gem_network.gem_convs.1.neighbour_kernel.kernels.5.weights f4 [2]
-0.5384338 4.8816204e-05
00000000: ccd6 09bf 00c0 4c38

gem_network.gem_convs.1.neighbour_kernel.kernels.8.weights f4 [2]
-0.22681537 0.2070508
00000000: 4a42 68be 2005 543e

gem_network.gem_convs.1.neighbour_kernel.kernels.9.weights f4 [2]
-0.5910549 -0.5009254
00000000: 604f 17bf a63c 00bf

gem_network.gem_convs.1.neighbour_kernel.kernels.10.weights f4 [2]
0.25583583 -0.033124328
00000000: eafc 823e 60ad 07bd

gem_network.gem_convs.1.neighbour_kernel.kernels.11.weights f4 [2]
-0.037561417 0.56390566
00000000: 00da 19bd 1f5c 103f

gem_network.gem_convs.1.neighbour_kernel.kernels.12.weights f4 [2]
-0.5964142 0.64286953
00000000: 9aae 18bf 1993 243f

gem_network.gem_convs.1.neighbour_kernel.kernels.13.weights f4 [2]
-0.68189704 -0.020672202
00000000: ce90 2ebf c058 a9bc

gem_network.gem_convs.1.neighbour_kernel.kernels.14.weights f4 [4]
-0.46081823 0.063209295 -0.08873594 0.0063201785
00000000: 5ef0 ebbe e073 813d 30bb b5bd 8019 cf3b

gem_network.gem_convs.1.neighbour_kernel.kernels.15.weights f4 [4]
0.49907315 0.09537035 0.20361006 0.06167239
00000000: 8486 ff3e 8851 c33d 287f 503e 309c 7c3d

gem_network.gem_convs.1.neighbour_kernel.kernels.16.weights f4 [4]
0.061743855 -0.006333351 -0.39854658 0.49026245
00000000: 20e7 7c3d 0088 cfbb 4c0e ccbe ae03 fb3e

gem_network.gem_convs.1.neighbour_kernel.kernels.17.weights f4 [4]
0.260594 0.29557282 0.45370477 0.2670883
00000000: 946c 853e 5255 973e fe4b e83e ccbf 883e

gem_network.gem_convs.1.neighbour_kernel.kernels.18.weights f4 [2]
0.5971678 0.5071984
00000000: fddf 183f c1d7 013f

gem_network.gem_convs.1.neighbour_kernel.kernels.19.weights f4 [2]
0.08906692 0.4991873
00000000: b868 b63d 7a95 ff3e

gem_network.gem_convs.1.neighbour_kernel.kernels.20.weights f4 [4]
0.14525437 -0.22761923 0.43764377 0.27621114
00000000: 90bd 143e 0415 69be d812 e03e 8c6b 8d3e

gem_network.gem_convs.1.neighbour_kernel.kernels.21.weights f4 [4]
-0.30312353 0.47316897 0.40891343 0.42107773
00000000: 0233 9bbe 3443 f23e 1a5d d13e 8097 d73e

gem_network.gem_convs.1.neighbour_kernel.kernels.22.weights f4 [4]
0.41292626 0.09914112 0.48113453 0.20224053
00000000: 126b d33e 800a cb3d 4457 f63e 2418 4f3e

gem_network.gem_convs.1.neighbour_kernel.kernels.23.weights f4 [4]
0.040872335 0.2963946 0.44979298 -0.3716585
00000000: c069 273d 08c1 973e 444b e63e 064a bebe

gem_network.gem_convs.1.neighbour_kernel.kernels.24.weights f4 [2]
-0.15677947 0.4940123
00000000: cc8a 20be 2eef fc3e

gem_network.gem_convs.1.neighbour_kernel.kernels.25.weights f4 [2]
0.41569608 0.11508423
00000000: 1ed6 d43e 48b1 eb3d

gem_network.gem_convs.1.neighbour_kernel.kernels.26.weights f4 [4]
0.45610607 0.48848796 -0.37098014 0.24895078
00000000: bc86 e93e 181b fa3e 1cf1 bdbe f4ec 7e3e

gem_network.gem_convs.1.neighbour_kernel.kernels.27.weights f4 [4]
-0.4035625 -0.36139476 0.35406005 -0.18405354
00000000: be9f cebe bc08 b9be 5c47 b53e 8878 3cbe

gem_network.gem_convs.1.neighbour_kernel.kernels.28.weights f4 [4]
0.1495167 0.13049799 0.08667344 0.36728853
00000000: e81a 193e 44a1 053e d881 b13d 3e0d bc3e

gem_network.gem_convs.1.neighbour_kernel.kernels.29.weights f4 [4]
0.49004436 -0.25314027 -0.19184619 -0.33287334
00000000: 18e7 fa3e 9a9b 81be 5473 44be 606e aabe

gem_network.gem_convs.1.neighbour_kernel.kernels.30.weights f4 [2]
-0.3223975 -0.44979185
00000000: 4911 a5be 1e4b e6be

gem_network.gem_convs.1.neighbour_kernel.kernels.31.weights f4 [2]
-0.58472085 -0.21524295
00000000: 44b0 15bf a668 5cbe

gem_network.gem_convs.1.neighbour_kernel.kernels.32.weights f4 [4]
-0.109621644 0.045822322 0.42557466 -0.19163853
00000000: 5081 e0bd 30b0 3b3d ece4 d93e e43c 44be

gem_network.gem_convs.1.neighbour_kernel.kernels.33.weights f4 [4]
-0.12722027 0.115273 0.16449004 0.2799977
00000000: 0846 02be 4014 ec3d 1470 283e dc5b 8f3e

gem_network.gem_convs.1.neighbour_kernel.kernels.34.weights f4 [4]
-0.26404005 0.49216968 0.08984667 -0.2558697
00000000: 4230 87be aafd fb3e 8801 b83d 5a01 83be

gem_network.gem_convs.1.neighbour_kernel.kernels.35.weights f4 [4]
0.006853521 0.23291427 0.0802452 -0.36371064
00000000: 8093 e03b 1481 6e3e 9857 a43d 4838 babe

gem_network.gem_convs.1.self_kernel.kernels.14.weights f4 [2]
-0.059031725 0.056049824
00000000: 40cb 71bd 8094 653d

gem_network.gem_convs.1.self_kernel.kernels.15.weights f4 [2]
0.20561045 -0.13401306
00000000: 8c8b 523e b83a 09be

gem_network.gem_convs.1.self_kernel.kernels.16.weights f4 [2]
0.47216696 -0.36895257
00000000: debf f13e 5ae7 bcbe

gem_network.gem_convs.1.self_kernel.kernels.17.weights f4 [2]
0.70196396 -0.12620652
00000000: e9b3 333f 483c 01be

gem_network.gem_convs.1.self_kernel.kernels.20.weights f4 [2]
0.0049743652 -0.51916385
00000000: 0000 a33b ece7 04bf

gem_network.gem_convs.1.self_kernel.kernels.21.weights f4 [2]
0.6288461 -0.56352556
00000000: 0ffc 203f 3643 10bf

gem_network.gem_convs.1.self_kernel.kernels.22.weights f4 [2]
-0.30121306 -0.609067
00000000: 9938 9abe d1eb 1bbf

gem_network.gem_convs.1.self_kernel.kernels.23.weights f4 [2]
-0.47972316 -0.51456106
00000000: 469e f5be 46ba 03bf

gem_network.gem_convs.1.self_kernel.kernels.26.weights f4 [2]
0.57816714 -0.21312186
00000000: c302 143f 9e3c 5abe

gem_network.gem_convs.1.self_kernel.kernels.27.weights f4 [2]
0.7065291 -0.21292385
00000000: 17df 343f b608 5abe

gem_network.gem_convs.1.self_kernel.kernels.28.weights f4 [2]
0.5491279 0.27410954
00000000: a593 0c3f 1658 8c3e

gem_network.gem_convs.1.self_kernel.kernels.29.weights f4 [2]
0.40752047 -0.6594006
00000000: 86a6 d03e 7ace 28bf

gem_network.gem_convs.1.self_kernel.kernels.32.weights f4 [2]
-0.25381145 0.62512225
00000000: 93f3 81be 0308 203f

gem_network.gem_convs.1.self_kernel.kernels.33.weights f4 [2]
0.6274721 0.43863863
00000000: 03a2 203f 3e95 e03e

gem_network.gem_convs.1.self_kernel.kernels.34.weights f4 [2]
-0.1749872 -0.54647654
00000000: d82f 33be e3e5 0bbf

gem_network.gem_convs.1.self_kernel.kernels.35.weights f4 [2]
0.08367938 -0.035623968
00000000: 1860 ab3d 70ea 11bd

gem_network.gem_convs.1.distance_weight.mlp.0.weight f4 [2, 1]
0.78941643 0.3687228
00000000: 3217 4a3f 3cc9 bc3e

gem_network.gem_convs.1.distance_weight.mlp.0.bias f4 [2]
-0.93066895 0.5254885
00000000: 5240 6ebf 6a86 063f

gem_network.gem_convs.1.distance_weight.mlp.1.weight f4 [1, 2]
-0.4950063 0.5799671
00000000: 7771 fdbe b978 143f

gem_network.gem_convs.2.neighbour_kernel.kernels.2.weights f4 [2]
-0.45502615 -0.0043873787
00000000: 30f9 e8be 00c4 8fbb

gem_network.gem_convs.2.neighbour_kernel.kernels.3.weights f4 [2]
0.17836529 0.08404106
00000000: 64a5 363e b81d ac3d

gem_network.gem_convs.2.neighbour_kernel.kernels.4.weights f4 [2]
0.21093011 0.19531113
00000000: 10fe 573e a4ff 473e

gem_network.gem_convs.2.neighbour_kernel.kernels.5.weights f4 [2]
-0.44801182 -0.33389652
00000000: ce61 e5be 7cf4 aabe

gem_network.gem_convs.2.neighbour_kernel.kernels.8.weights f4 [2]
-0.21656263 -0.5259646
00000000: 98c2 5dbe 9ea5 06bf

gem_network.gem_convs.2.neighbour_kernel.kernels.9.weights f4 [2]
0.06521827 -0.20591009
00000000: 2891 853d 18da 52be

gem_network.gem_convs.2.neighbour_kernel.kernels.10.weights f4 [2]
0.6864682 -0.49684262
00000000: 61bc 2f3f 2862 febe

gem_network.gem_convs.2.neighbour_kernel.kernels.11.weights f4 [2]
0.40554243 -0.06393379
00000000: 42a3 cf3e b8ef 82bd

gem_network.gem_convs.2.neighbour_kernel.kernels.14.weights f4 [2]
0.39258045 0.6152014
00000000: 4e00 c93e d77d 1d3f

gem_network.gem_convs.2.neighbour_kernel.kernels.15.weights f4 [2]
0.6236667 0.094466925
00000000: 9fa8 1f3f e077 c13d

gem_network.gem_convs.2.neighbour_kernel.kernels.16.weights f4 [2]
0.6059484 -0.3529269
00000000: 6f1f 1b3f d6b2 b4be

gem_network.gem_convs.2.neighbour_kernel.kernels.17.weights f4 [2]
-0.2441405 -0.16220343
00000000: f8ff 79be a818 26be

gem_network.gem_convs.2.neighbour_kernel.kernels.20.weights f4 [2]
0.34561747 -0.25562873
00000000: c6f4 b03e c5e1 82be

gem_network.gem_convs.2.neighbour_kernel.kernels.21.weights f4 [2]
0.35124427 0.17180496
00000000: 4ad6 b33e a4ed 2f3e

gem_network.gem_convs.2.neighbour_kernel.kernels.22.weights f4 [2]
-0.13843787 0.551248
00000000: a8c2 0dbe 971e 0d3f

gem_network.gem_convs.2.neighbour_kernel.kernels.23.weights f4 [2]
0.28149384 -0.1999796
00000000: f61f 903e 74c7 4cbe

gem_network.gem_convs.2.neighbour_kernel.kernels.26.weights f4 [2]
0.52176267 0.251168
00000000: 3d92 053f 1899 803e

gem_network.gem_convs.2.neighbour_kernel.kernels.27.weights f4 [2]
0.56198853 0.5197428
00000000: 7bde 0f3f dd0d 053f

gem_network.gem_convs.2.neighbour_kernel.kernels.28.weights f4 [2]
-0.65410787 0.27665412
00000000: 9d73 27bf 9ca5 8d3e

gem_network.gem_convs.2.neighbour_kernel.kernels.29.weights f4 [2]
-0.3479154 0.3292101
00000000: f821 b2be 3a8e a83e

gem_network.gem_convs.2.neighbour_kernel.kernels.32.weights f4 [2]
-0.44501954 0.4828903
00000000: 9ad9 e3be 663d f73e

gem_network.gem_convs.2.neighbour_kernel.kernels.33.weights f4 [2]
0.045808375 0.07086623
00000000: 90a1 3b3d 5022 913d

gem_network.gem_convs.2.neighbour_kernel.kernels.34.weights f4 [2]
0.123892665 -0.5907728
00000000: 70bb fd3d e33c 17bf

gem_network.gem_convs.2.neighbour_kernel.kernels.35.weights f4 [2]
0.6382198 -0.1933893
00000000: 5f62 233f d807 46be

gem_network.gem_convs.2.neighbour_kernel.kernels.38.weights f4 [2]
-0.4326679 -0.10635209
00000000: a686 ddbe 20cf d9bd

gem_network.gem_convs.2.neighbour_kernel.kernels.39.weights f4 [2]
-0.6789297 -0.6960183
00000000: 56ce 2dbf 412e 32bf

gem_network.gem_convs.2.neighbour_kernel.kernels.40.weights f4 [2]
-0.30751798 0.41140765
00000000: ff72 9dbe 06a4 d23e

gem_network.gem_convs.2.neighbour_kernel.kernels.41.weights f4 [2]
0.4752285 0.3214602
00000000: 2651 f33e 6e96 a43e

gem_network.gem_convs.2.neighbour_kernel.kernels.44.weights f4 [2]
-0.34909046 -0.4742225
00000000: fcbb b2be 4bcd f2be

gem_network.gem_convs.2.neighbour_kernel.kernels.45.weights f4 [2]
-0.13644952 -0.4108038
00000000: 6cb9 0bbe e054 d2be

gem_network.gem_convs.2.neighbour_kernel.kernels.46.weights f4 [2]
-0.31540957 -0.19817346
00000000: 5d7d a1be fced 4abe

gem_network.gem_convs.2.neighbour_kernel.kernels.47.weights f4 [2]
-0.35574502 0.4979754
00000000: 3624 b6be a2f6 fe3e

gem_network.gem_convs.2.neighbour_kernel.kernels.50.weights f4 [2]
-0.13306457 0.2848696
00000000: 1442 08be 6eda 913e

gem_network.gem_convs.2.neighbour_kernel.kernels.51.weights f4 [2]
-0.21306065 0.13670355
00000000: 922c 5abe 04fc 0b3e

gem_network.gem_convs.2.neighbour_kernel.kernels.52.weights f4 [2]
-0.35351378 0.4069721
00000000: c2ff b4be a65e d03e

gem_network.gem_convs.2.neighbour_kernel.kernels.53.weights f4 [2]
-0.39175496 -0.10304254
00000000: 1b94 c8be f807 d3bd

gem_network.gem_convs.2.neighbour_kernel.kernels.56.weights f4 [2]
0.18982255 -0.22804809
00000000: d860 423e 7085 69be

gem_network.gem_convs.2.neighbour_kernel.kernels.57.weights f4 [2]
0.33242577 -0.47830772
00000000: b633 aa3e c0e4 f4be

gem_network.gem_convs.2.neighbour_kernel.kernels.58.weights f4 [2]
0.5063303 0.49875122
00000000: dd9e 013f 525c ff3e

gem_network.gem_convs.2.neighbour_kernel.kernels.59.weights f4 [2]
0.53271335 -0.6188172
00000000: e75f 083f ce6a 1ebf

gem_network.gem_convs.2.neighbour_kernel.kernels.62.weights f4 [2]
-0.48334444 -0.34491903
00000000: ec78 f7be 3a99 b0be

gem_network.gem_convs.2.neighbour_kernel.kernels.63.weights f4 [2]
-0.3757341 0.6786997
00000000: 3860 c0be 43bf 2d3f

gem_network.gem_convs.2.neighbour_kernel.kernels.64.weights f4 [2]
-0.42948127 -0.5480839
00000000: f8e4 dbbe 3a4f 0cbf

gem_network.gem_convs.2.neighbour_kernel.kernels.65.weights f4 [2]
0.45995468 -0.08538473
00000000: 2e7f eb3e 30de aebd

gem_network.gem_convs.2.neighbour_kernel.kernels.68.weights f4 [2]
0.5375952 -0.6827128
00000000: d79f 093f 44c6 2ebf

gem_network.gem_convs.2.neighbour_kernel.kernels.69.weights f4 [2]
-0.44259602 -0.5505851
00000000: f29b e2be 25f3 0cbf

gem_network.gem_convs.2.neighbour_kernel.kernels.70.weights f4 [2]
0.31999952 0.40043312
00000000: fad6 a33e 9205 cd3e

gem_network.gem_convs.2.neighbour_kernel.kernels.71.weights f4 [2]
0.55814606 0.041204035
00000000: a9e2 0e3f 90c5 283d

gem_network.gem_convs.2.neighbour_kernel.kernels.74.weights f4 [2]
0.47177798 -0.2751079
00000000: e28c f13e f1da 8cbe

gem_network.gem_convs.2.neighbour_kernel.kernels.75.weights f4 [2]
-0.5063407 -0.5260878
00000000: 8b9f 01bf b1ad 06bf

gem_network.gem_convs.2.neighbour_kernel.kernels.76.weights f4 [2]
0.6012623 -0.39296347
00000000: 53ec 193f 8232 c9be

gem_network.gem_convs.2.neighbour_kernel.kernels.77.weights f4 [2]
0.13559812 0.1347627
00000000: 3cda 0a3e 3cff 093e

gem_network.gem_convs.2.neighbour_kernel.kernels.80.weights f4 [2]
-0.51425964 -0.10062915
00000000: 85a6 03bf a816 cebd

gem_network.gem_convs.2.neighbour_kernel.kernels.81.weights f4 [2]
-0.64631 -0.5723351
00000000: 9274 25bf 8e84 12bf

gem_network.gem_convs.2.neighbour_kernel.kernels.82.weights f4 [2]
-0.3507029 0.5270627
00000000: 558f b3be 95ed 063f

gem_network.gem_convs.2.neighbour_kernel.kernels.83.weights f4 [2]
-0.56375647 -0.45356634
00000000: 5852 10bf d939 e8be

gem_network.gem_convs.2.neighbour_kernel.kernels.86.weights f4 [2]
0.6113121 -0.5599843
00000000: f37e 1c3f 225b 0fbf

gem_network.gem_convs.2.neighbour_kernel.kernels.87.weights f4 [2]
0.096084595 0.005839467
00000000: 00c8 c43d 0059 bf3b

gem_network.gem_convs.2.neighbour_kernel.kernels.88.weights f4 [2]
-0.48941857 -0.46571153
00000000: 1295 fabe be71 eebe

gem_network.gem_convs.2.neighbour_kernel.kernels.89.weights f4 [2]
0.10758352 -0.5098552
00000000: c054 dc3d df85 02bf

gem_network.gem_convs.2.neighbour_kernel.kernels.92.weights f4 [2]
-0.5115434 -0.053539455
00000000: 82f4 02bf 304c 5bbd

gem_network.gem_convs.2.neighbour_kernel.kernels.93.weights f4 [2]
-0.084530056 -0.6806091
00000000: 181e adbd 663c 2ebf

gem_network.gem_convs.2.neighbour_kernel.kernels.94.weights f4 [2]
-0.1029222 -0.38480562
00000000: e0c8 d2bd 3e05 c5be

gem_network.gem_convs.2.neighbour_kernel.kernels.95.weights f4 [2]
-0.5836751 0.59769386
00000000: bb6b 15bf 7702 193f

gem_network.gem_convs.2.distance_weight.mlp.0.weight f4 [2, 1]
0.99082184 -0.5958885
00000000: 80a6 7d3f 268c 18bf

gem_network.gem_convs.2.distance_weight.mlp.0.bias f4 [2]
0.2608614 -0.44982064
00000000: a08f 853e e44e e6be

gem_network.gem_convs.2.distance_weight.mlp.1.weight f4 [1, 2]
0.5825049 0.21672052
00000000: 0b1f 153f fceb 5d3e

head.convs.0.weight f4 [2, 16, 1]
-0.04390073 -0.012455136 -0.1138435 0.23221752 -0.1474796 -0.03125137 -0.13390306 0.21650168
0.19363773 0.07803202 -0.18191192 -0.09893775 0.11418584 -0.027211994 0.02257961 0.23240215
-0.15549919 0.19787294 -0.07401699 -0.13783571 -0.16991255 -0.087129205 0.13479832 0.021289498
0.026423424 -0.026529133 0.20768112 -0.016667992 -0.24610847 0.053435147 -0.21075329 0.0656299
00000000: 40d1 33bd a010 4cbc c826 e9bd 6eca 6d3e
00000010: e404 17be 7001 00bd e21d 09be 9eb2 5d3e
00000020: f848 463e 40cf 9f3d 1e47 3abe e09f cabd
00000030: 44da e93d b0eb debc e0f8 b83c d4fa 6d3e
00000040: 2e3b 1fbe 349f 4a3e 3896 97bd ce24 0dbe
00000050: 8efd 2dbe cc70 b2bd 9208 0a3e 5067 ae3c
00000060: f075 d83c a053 d9bc 5caa 543e 508b 88bc
00000070: dc03 7cbe d0de 5a3d b6cf 57be f868 863d

head.convs.0.bias f4 [2]
0.12661436 -0.24572057
00000000: 32a7 013e 2c9e 7bbe

head.convs.1.weight f4 [1, 2, 1]
0.6291483 0.12623966
00000000: dd0f 213f f844 013e
